data/W4.npy (npy, 688 bytes, 1 tensors)

array f8 [4, 19]
0	0x3fede6c96036af04	0.9344221953556091
1	0xbfe0b70d357ba730	-0.5223451656904441
2	0xbfe580ad8e2a3258	-0.6719577576310014
3	0x3fac9e20beb785c0	0.055893920212621406
4	0x3fdc1b15901c7f3a	0.4391530902230333
5	0x3fbdbac5dca2cbe9	0.11613117825144993
6	0x40009b0ed58346da	2.075711887425183
7	0xbfeb33b2d98765b2	-0.8500608681308022
8	0x3fc542aaf2460678	0.16609703855288038
9	0xbfd1d7fb748f628f	-0.2788075102121547
10	0x3ffe75945246dba0	1.903705903428751
11	0x3f93ac1b92e5fada	0.0192112263116496
12	0x3ff8c50f33178302	1.5481101985716923
13	0xbfe0345a7ff4d69f	-0.5063908099316058
14	0xbfce575a37c12473	-0.23704078409562931
15	0xbfd8390b62d94803	-0.3784817185706972
16	0xbfe22c6f1415a8d4	-0.567924060085057
17	0xbfda696320c97a0b	-0.4126823253808715
18	0x3f8f43deca3a4c91	0.015266171022892546
19	0x400dd162dc401087	3.727239342408271
20	0xbff81217ca65147e	-1.504417219738826
21	0xbff6dea30e816579	-1.4293547217006035
22	0xbfd0d248627958cb	-0.2628346406612649
23	0xbfdab2f19f1fe402	-0.41717186488637037
24	0x3ff28101c4cb0e1f	1.1564958274110564
25	0x40058be96cd58883	2.6933163168587853
26	0x3fde6c219195bfe9	0.4753498002746697
27	0xbff1082e23d5a888	-1.064497127512853
28	0x4012ecc86f54b2b7	4.731233348412096
29	0xbff92826fbc006b3	-1.5723028024662369
30	0x3fb88b37d9bf9b3e	0.09587430063366484
31	0xbfc2e9acbb131483	-0.147756186814295
32	0x3ffadd3e5c5f1615	1.6790145500430118
33	0x3fbc73daf73fa628	0.11114281212180599
34	0x3fd27fbb952f56f8	0.2890461880573265
35	0xbfec76574e228c3e	-0.8894459272454538
36	0xbfdd966004c5a016	-0.46230316606534083
37	0x3fd4fafeddf3ec47	0.32781955409126734
38	0x3ff5bc4c47eff8dc	1.3584711847357118
39	0xbfb2a25bc749b9d2	-0.07278989425115093
40	0x3ff03d6d8013d2f2	1.0149970057511237
41	0x3feaae719b526f3c	0.8337944062836651
42	0xbfc96a67a7e06076	-0.19855972001164773
43	0x3fe563e7c6701b95	0.6684454799404757
44	0xbff08c36e1fafc79	-1.0342320277557333
45	0x3ffd6c57b93dcc52	1.8389508472435137
46	0x3fee67b7c7ddb29e	0.9501608756668991
47	0x3ffd3f01e2c0f36e	1.827882657772729
48	0xbff1f0fc1c74dc13	-1.1213341819363947
49	0x3fddac5fa272e7fc	0.463645847932298
50	0xbff2057ae159fd2c	-1.1263378908914303
51	0xbfcbae3cb47d0c50	-0.21625479519761592
52	0x3fd2c5e406531fd1	0.293328291107625
53	0xbfe9030752ede9c2	-0.7816197032655554
54	0xbfb515ba762043e0	-0.08236279853760164
55	0x3fc70866ee954e25	0.17994391107150523
56	0x3ff7267f9ea33f01	1.4468990513595943
57	0xc01967a61d327c07	-6.351219612318352
58	0xbff6749adcc30209	-1.4034680007463314
59	0xbfd7cb3fd5abc16e	-0.37178035608578497
60	0x3fef7915106f40fc	0.9835305520046229
61	0x3fdb15a9ab992559	0.4231971908344199
62	0x3fe14066799ac91c	0.5391113638964131
63	0x3ff65aed0a8b51b6	1.3971987163432522
64	0xbffa39c620e62b09	-1.6391049656983248
65	0x3fedba28feaf6ed9	0.9289746259996391
66	0xbfead32671be6182	-0.8382751676136169
67	0x400529882dcee3d1	2.645279271961478
68	0xbfe99fa4b5cfde50	-0.800737719632659
69	0x3fe1232671978a24	0.5355407923310094
70	0x3ff04ebb5259dee9	1.0192216126287639
71	0x4000a569a2f1fcb7	2.0807678918932555
72	0x3ff1958497f1332a	1.0990034041635206
73	0x3ff9e9398e308981	1.6194396547585657
74	0x4003c985f2ea9f68	2.4734000184870872
75	0x401f0ceab6226e10	7.762614103175579
