data/W_2m_1444288.npy (npy, 3728 bytes, 1 tensors)

array f8 [24, 19]
00000000: 7e30 9571 23a9 f43f 994c 9656 8015 ee3f
00000010: 87d9 182b 0d8d d7bf 5ecf dbaf d365 80bf
00000020: f92f 71e3 cf81 c6bf 20f7 3063 7da3 f03f
00000030: e178 3695 5c8b cd3f 69ca ba5d d1c7 f73f
00000040: 700b 4b75 cfa9 f23f 15f6 77f2 8f02 ef3f
00000050: 2300 c756 bff9 8a3f bdc5 b47d 98e8 d83f
00000060: 7aed f26e 3dc5 ccbf 3166 0d40 b667 f63f
00000070: 35d6 00bf 4016 f63f 2549 0690 28b7 e0bf
00000080: 2e48 f809 d967 cabf 6c70 1bf0 af1b c1bf
00000090: b50d c74f 8229 04c0 caff 2784 d728 e0bf
000000a0: a8b7 83df 232b e8bf b4be 56df 6203 a23f
000000b0: eba3 2d3d b660 d1bf 614a e5a7 dee3 f03f
000000c0: 7605 aad5 7eab ba3f 593e 749c b9f3 b63f
000000d0: 3e1d 8b54 ccbd d43f 7c53 559d 230d f73f
000000e0: 6c71 4f48 a27f 00c0 0f03 db18 8e7f 0040
000000f0: e331 2830 fe86 edbf 7690 feb4 8bb9 0040
00000100: 5c7e 4104 234d fabf da06 92c9 06d7 d03f
00000110: 88aa 269c 45d2 e23f 628c 7084 ded1 f13f
00000120: b344 67fb ef11 f0bf afd7 4e7a f999 f33f
00000130: 1251 86cc 6a7f 1a40 303f 3924 99b7 a0bf
00000140: 175c 5969 7314 d3bf e1f2 2f23 eb59 cebf
00000150: 3c9b 3b4c 04e6 b43f 17a7 73fd 3643 fcbf
00000160: d49a 7eb3 b82c 0040 1848 e445 387f fe3f
00000170: 0c82 914a e123 d43f 31cf 4e2c e27f f43f
00000180: ad0c 76fa 5ece e9bf 4ba7 682f 3137 e6bf
00000190: b786 4c12 aa8c 03c0 f6ac 7b69 fe2e e7bf
000001a0: ca3e ecbc ab33 f6bf 3b4f 1b2a bc9c e93f
000001b0: 2b47 f822 740b b33f d045 eeca 99bc b13f
000001c0: 2600 34b5 a1e1 e13f bf73 7a28 d3ed ff3f
000001d0: 5b55 4e62 1e81 03c0 5b3c 8087 7071 b53f
000001e0: e7fb c965 d76c e23f 7da0 49b1 b921 cf3f
000001f0: c190 927f be51 f3bf 9e93 38de 7f97 e4bf
00000200: 1509 9a53 0752 06c0 d18c 1a95 e8ed fb3f
00000210: 8705 d5a9 b9d2 03c0 8e70 1ec5 9d06 f33f
00000220: 6c82 5cca a02c d03f 449b 1f8e 27f0 f03f
00000230: a4f2 7ca0 6269 d1bf 5c14 5bde 5f4a 0540
00000240: d779 4781 ecdd f03f 1b76 c7d5 da3c fabf
00000250: d7b4 449c 5627 bdbf 6c92 a371 ca32 0d40
00000260: 53ea 5b3c ee1e ef3f 1343 fb47 3e97 ed3f
00000270: c03a ff67 7da0 f3bf fbbe 2366 ca94 d0bf
00000280: 6b64 b044 1715 e5bf af07 5187 5574 f93f
00000290: 514b 9cd7 9718 e1bf 20e1 e932 08a0 f23f
000002a0: c745 8f0a 16dc d13f f75a a11b b059 01c0
000002b0: a5fa 84c6 3a1c 9ebf 9a06 2494 b3cc f3bf
000002c0: 0db6 2741 c2a0 f9bf 7ff1 bb45 fed5 eabf
000002d0: 3411 f770 ce3b f33f 9740 1c3a 50dc d6bf
000002e0: c54d cb75 cb5e 0540 b0b1 78c5 82c9 e63f
000002f0: 9f5f ea80 9f2e 02c0 46da d99e 0b63 11c0
00000300: 2871 f08e 2901 e43f 68b2 679c e885 efbf
00000310: cc1a 445d 7590 d3bf 6649 9e66 efb6 fc3f
00000320: 5f63 eb81 95a0 f13f cdad d29d 215d 8d3f
00000330: e818 a32f 61ff e0bf 2eac 6324 729d f2bf
00000340: deee 059f 7e01 1940 eed6 5b40 ff85 a73f
00000350: 09e5 fcc4 2294 e23f 27a7 8bc9 25ef d03f
00000360: dbef ee6d 0fb6 fa3f 8199 d0a2 a10b f6bf
00000370: 37be eee2 5b64 e03f 62e4 33a6 3618 db3f
00000380: 3f4a 2d2b 0cdb d8bf b87e 458d 0b7f 0240
00000390: ae99 6265 cc01 febf da5e c276 7f63 96bf
000003a0: b4dd de3e 6235 e6bf d05d 26b1 6f53 ad3f
000003b0: d5b8 3991 44b5 fb3f bffd 6180 f3fc 0140
000003c0: 217f a199 954f acbf 80aa e06a d1e3 f73f
000003d0: ac49 5d59 1a77 e53f ae4b 23bb f9ee f5bf
000003e0: d85a 9ecb cb99 ec3f b588 d1fd 957e f6bf
000003f0: 1ddd 901c 3e83 d83f 758d 9ee0 ee55 e1bf
00000400: d9c8 4d6a 69d0 d43f 5c4c 936f c36a e0bf
00000410: 631c daef b80f e13f 2853 58c7 ae7b e7bf
00000420: c8ee 0823 6b25 0040 858d 1527 122b 14c0
00000430: 70fc fd97 d40f d9bf 77fd 7175 a398 f63f
00000440: f802 3146 6758 e13f 2a8d 8494 dd83 f23f
00000450: 4c4c f8af 2fd6 e33f 427c 8916 be61 be3f
00000460: fa2c eca3 76fa f53f ecb3 3aed 8411 ff3f
00000470: ffec c037 7ec4 f2bf ec8d 0823 6f58 f03f
00000480: ec81 e56b ce21 e6bf 1934 a9cf a9e7 f43f
00000490: d312 ed9d f0b5 d5bf 8726 7ef2 803e d53f
000004a0: 70c4 8fd4 b389 fbbf 8ab8 2835 4d12 f33f
000004b0: 7bf6 74df 71a5 d83f 0a00 e9e4 1f2e 0e40
000004c0: 7a16 6bd3 de99 f63f 1326 92a7 6e15 f93f
000004d0: e15c f176 1240 f93f ae4e 9c2a 1609 f23f
000004e0: fdd9 0c02 5cce f93f ed8f cf49 6681 0140
000004f0: db82 2e68 935d eb3f 3831 ab35 c308 ba3f
00000500: d5c5 9f29 bfc1 f33f e61a 8ced 1d27 ecbf
00000510: eec0 3d65 4538 d53f 9bdb bcc1 c9d7 0340
00000520: e742 a76d d221 d03f b05c d861 1726 e83f
00000530: b8d9 47c5 fd1b f63f cee0 d555 6964 d43f
00000540: bc54 1dcb 98d0 e2bf 0a83 21ae 5d4e 0340
00000550: 155f 696e de69 1740 75ec 66e0 823a fc3f
00000560: 9a0d 5827 a6fb e3bf eee7 eaa7 97bc e93f
00000570: de50 4b40 1fff c5bf 09bf 4071 8242 e33f
00000580: 4fe4 3b82 6c39 f73f fe0f 16b6 0e84 c13f
00000590: f04a 636f 2eb0 e33f 3724 675b e6cf e0bf
000005a0: 819b 9990 774e 0c40 bf67 c0e4 d289 e73f
000005b0: 24c1 d139 f28b a13f 09af ba31 4aa7 9bbf
000005c0: bfaa 32f6 99c1 e93f c9d5 adf9 e83c c7bf
000005d0: f4c1 4f95 6500 863f 5314 2784 6bc2 c23f
000005e0: 7ff6 624c 51b4 d93f da57 df59 8b68 dabf
000005f0: e7e9 3f0b 6224 18c0 504a 2156 43be e93f
00000600: e318 31e6 8b62 bdbf 9e81 8e6b 6a54 f03f
00000610: 1b98 2700 5eb0 f83f 791a efbc db3d f13f
00000620: 4e19 7f4e b7b4 d2bf 1d45 f69c 122c e63f
00000630: 5a60 d071 a61f de3f 9d4e b33d 609a efbf
00000640: a468 34ad a1f5 d23f 7992 0a1b 8f73 0340
00000650: 1d3e 147d df99 0440 24b5 5763 ab92 cf3f
00000660: d791 9499 e097 b03f ac4f a5c6 f906 d1bf
00000670: 992d af21 5a6f f63f 35be 9d1a 8275 df3f
00000680: 7fe0 1b85 e1a8 1140 0d40 aa34 41eb 14c0
00000690: 2759 a3cd d123 0040 a550 f999 d14c e4bf
000006a0: cf6d 1d96 26f6 b23f 0a19 b8b2 ff6b f0bf
000006b0: 8859 984a 8b02 f9bf 6de6 e1ca 3deb fc3f
000006c0: f2ea 4fd7 31bd 0ac0 357a 7e1e ab89 f13f
000006d0: a559 cb0c bf7e f03f 24df 8a0d a3c9 01c0
000006e0: 64a4 fdf2 68e0 e83f 8636 4f31 2c6d f7bf
000006f0: 68ab 5384 d9b9 f73f be09 b800 bb95 f73f
00000700: 3db6 654e 61cc 0040 5157 08b8 9be7 0140
00000710: b521 78d3 fbe2 f13f a959 29ab c816 0640
00000720: b955 90be 037f ffbf b00d 78fa 9f8e cdbf
00000730: 38ed 6ef4 cea1 7bbf d4db b789 33c9 f23f
00000740: 278b 085f a97a fa3f a2ff 8894 60d0 f03f
00000750: a58d ecf5 70af f3bf 03f7 451d 1288 0340
00000760: 4c53 43a3 0b78 f93f ee96 96c0 9205 f7bf
00000770: 19d8 c61b bbab e0bf 604e 401e b477 f53f
00000780: c9e5 fd67 aa75 f63f 9e99 9588 4795 e7bf
00000790: c4d1 0288 9cd8 b63f ad80 a8ee 9731 e4bf
000007a0: 0a6b f97c f205 ce3f 4f84 dd6d 653f fe3f
000007b0: 0229 c984 7f64 fa3f 21d3 0922 123d 0840
000007c0: 6b3b 973f 9b9e f13f 2fd7 adbe ee89 e53f
000007d0: fc30 68a4 1a03 e53f d641 8344 da33 d23f
000007e0: e0aa 2015 41e2 0540 edba 0484 abb6 e3bf
000007f0: 6a73 379e f633 f23f 525f 33dc 5516 d03f
1.2912935673548698 0.9401246729998035 -0.36798409661005177 -0.00800671940257985 -0.1758365498120609 1.0399145006808297 0.2308154800966298 1.4862836514772886
1.1664576131595048 0.9690627799715822 0.013171667896017486 0.3891965129469915 -0.224769286321912 1.4003202917141488 1.3804328404488733 -0.5223582089404643
-0.20629418360528134 -0.13365744804366686 -2.5202680809613534 -0.5049855786492057 -0.7552661290662757 0.03518208481125154 -0.271527824158112 1.0556322630333386
0.1041793128624898 0.08965644902877425 0.3240843606585776 1.4407077928383094 -2.062321247982416 2.0622827474438803 -0.9227286282126069 2.0905985012232646
-1.6438322225802926 0.2631241768323044 0.5881679582428925 1.113737599699356 -1.0043792553372384 1.2250914361625111 6.6244308430653 -0.032650743171528496
-0.2981232193755558 -0.23711909502153275 0.08163477765229471 -1.7664098644694997 2.021836664487049 1.906059525503684 0.3146899440962734 1.2812215548301078
-0.8064417735880817 -0.6942373205140283 -2.4436837606052353 -0.7244865474907829 -1.3876149539755027 0.8003826925655412 0.07439351896053085 0.06928406910289842
0.5587929286120967 1.9955627041992867 -2.4380462341456854 0.08376220043304398 0.5757863033358007 0.2432167163526663 -1.207457063989793 -0.6434935894254641
-2.7900530368216416 1.745583136021015 -2.4778931873449355 1.18911530494282 0.2527238823113638 1.0586314727494974 -0.2720572058931714 2.661315667299773
1.0541806268662322 -1.6398571348903548 -0.1138815051569567 3.649800193600006 0.9725257090461333 0.9247123151672859 -1.2266820967085295 -0.2590814588029244
-0.6588245717604314 1.5909018789102267 -0.5342520915167858 1.1640703190624393 0.27905798941818855 -2.1687929304711093 -0.029404562346139546 -1.237475947069845
-1.6017477555391253 -0.8386222230906667 1.202101174611994 -0.35719686198081874 2.6712865069073097 0.7120984894623259 -2.272765166428101 -4.3467240162340826
0.6251418868810434 -0.9850962691103406 -0.3056920443345177 1.7946619041946064 1.1017050814609417 0.014337790135264062 -0.5311742716228567 -1.163438932557948
6.251459583985449 0.04594419155720951 0.580582985631879 0.2645964115350687 1.6694483083983787 -1.3778396949724938 0.5122508461262844 0.4233528731416013
-0.3883696004533341 2.3120337521393957 -1.8754390678746904 -0.02186392938946722 -0.6940165737095669 0.05727719342683779 1.7317548439855746 2.248511317244009
-0.055294680598988906 1.4931196379572214 0.6707889314077895 -1.37084363079769 0.8937739350247638 -1.4059047617707112 0.38301041402469754 -0.5417398821922875
0.32522044545397716 -0.5130326441961972 0.5331692394837656 -0.7338479894120598 2.0182707535840088 -5.0420614344506065 -0.3915912136362243 1.4122652614313134
0.5420414324690617 1.157193737170767 0.6198957859909426 0.11867893266888621 1.3736483004784632 1.9417771593828048 -1.172971933162273 1.0215903633587642
-0.6916267497400077 1.3065584289317995 -0.3392297308203471 0.3319399231046209 -1.72111876518127 1.1919681622053155 0.38509795019113086 3.7725217708211902
1.4125660189178277 1.5677324815500284 1.5781426092342417 1.1272184051967247 1.6128807144247042 2.188183380743786 0.8551728281782646 0.10169620571395377
1.2348014474813358 -0.8797750129313868 0.33155951392019645 2.480365289283737 0.25206433018051516 0.7546498213804593 1.3818338114048014 0.31862862951630866
-0.5879634825784232 2.4132646182991992 5.853387570554124 1.764284969873896 -0.6244688766895934 0.8042715339317945 -0.17184820784917226 0.6018688404055591
1.4515194976104515 0.1368425740330394 0.6152565169853386 -0.5253783974850482 3.5383139893414755 0.7355741946987492 0.0342708297329202 -0.02700534752391007
0.8048829849770626 -0.18154632750854052 0.01074294435417842 0.14655822708860686 0.40163071117044774 -0.412630880132722 -6.03553025796507 0.8044754678943011
-0.11478494996945048 1.0206093026573408 1.543058395961913 1.0776021366342816 -0.2922800318305193 0.6928799691833408 0.4706817733254006 -0.9875947194181723
0.2962421599819527 2.4314252960778586 2.57513330190683 0.2466634974547698 0.06481746434707901 -0.26605076216696477 1.4021855655472335 0.4915471324847858
4.414922790361856 -5.2297409275925135 2.01749001173734 -0.6343772895147778 0.07406846203723848 -1.0263668996063324 -1.563121119868443 1.8074319768042202
-3.342380220533749 1.0961104575323024 1.0309439182070517 -2.223455529976393 0.7773937936700688 -1.464153473486847 1.4828734559075318 1.4740552929002742
2.0997949719228743 2.238089978937673 1.1179159412878168 2.761124932479295 -1.9685094303034545 -0.23091506700448639 -0.006746109406715654 1.1741214160554039
1.6549466812363762 1.0508733560709307 -1.2303323370368642 2.441440800378474 1.5918079736195123 -1.4388606570222993 -0.5209632437242845 1.3417245084464398
1.4037269651583861 -0.7369725864089565 0.08924272842961672 -0.6310538922589523 0.23455649473438483 1.8904775897610937 1.649535673803769 3.029819742131068
1.1012222751630485 0.6730874752235873 0.6566289149355096 0.28441483202644 2.735475697574074 -0.616048581932629 1.137686365159619 0.25136324409458155
